best_weight.npy (npy, 448 bytes, 1 tensors)

array f8 [40]
-1.3734287553013684 0.3386049641617346 1.7990275559751663 -1.868752227712816 0.006893341381344676 0.014500596036023031 0.009003559349248881 -0.0006160815551125687
0.004951373078791236 -0.005677015861229184 -0.0007199016452427158 0.009120935850515044 0.01570857712984986 0.008370834981273265 0.002940262825212709 0.018583498109134552
-2.75709182823138e-05 -0.009024308762713184 -0.00675889216632767 -0.007629990486130304 -1.5093460618369932 -0.010213817594205213 0.0023361943526028785 -0.004979443874971782
-0.008139089574406727 0.0040746772563282525 0.014755142752893986 -0.0011287140909279094 0.011960008276205913 -0.009503591469625917 -0.00016996749346378183 -0.019396899564130356
0.005083425707767212 0.019749464509387575 0.00302027174231342 0.008969345856052698 0.006928543967347741 -0.007481364278675649 -0.014274479405441878 -0.015261033830857213
00000000: 5f7c 366e 90f9 f5bf 30a0 d527 b4ab d53f
00000010: 2542 581e d1c8 fc3f b6a8 65bc 68e6 fdbf
00000020: 8149 b03c 313c 7c3f b551 fa0d 7db2 8d3f
00000030: b4f6 9e47 7570 823f 6796 c010 1130 44bf
00000040: 8468 1917 e447 743f 26d8 6757 c840 77bf
00000050: 0454 e602 f996 47bf e0b8 7e49 ffad 823f
00000060: 2258 28c4 e815 903f 18d5 e073 ba24 813f
00000070: 8e3e a195 2d16 683f acfc 7e72 8d07 933f
00000080: a77d d613 03e9 fcbe b3f3 0938 567b 82bf
00000090: a92e fc4c 36af 7bbf de20 b5f9 9f40 7fbf
000000a0: 00fb 5e0e 4826 f8bf 687e 4664 fbea 84bf
000000b0: c3ce edca 5a23 633f 373b 8649 5365 74bf
000000c0: 9d90 541c 3aab 80bf f446 ecd8 9bb0 703f
000000d0: ea69 92bc f137 8e3f 0b3b da86 2b7e 52bf
000000e0: 80e2 3f23 7d7e 883f 5ae4 7374 9e76 83bf
000000f0: b992 d0a6 2947 26bf 1a42 16e5 c7dc 93bf
00000100: 0402 aab2 5bd2 743f 2eaf b920 3439 943f
00000110: b7f0 760b f8bd 683f 0432 f238 855e 823f
00000120: 627f fadb 1a61 7c3f 9882 806e c7a4 7ebf
00000130: eedb b531 f03b 8dbf 8a48 a749 2d41 8fbf
